…
    pgd_steps: 100
    pgd_restarts: 30
    pgd_alpha: auto
  input_split_enhanced:
    pgd_steps: 200
    pgd_restarts: 500000
    pgd_alpha: auto
  input_split_check_adv:
    enabled: auto
    pgd_steps: 5
    pgd_restarts: 5
    pgd_alpha: auto
    max_num_domains: 10
debug:
  view_model: false
  lp_test: null
  rescale_vnnlib_ptb: null
  test_optimized_bounds: false
  test_optimized_bounds_after_n_iterations: 0
  print_verbose_decisions: false
  sanity_check: null
  save_minimal_config: null
  save_minimal_config_omit_keys: []

Experiments at Thu Mar 27 08:55:11 2025 on C2D-S02
ResNet1D(
  (conv1): Conv1d(1, 32, kernel_size=(5,), stride=(1,), padding=(2,))
  (resblock1): ResidualBlock1D(
    (conv1): Conv1d(32, 32, kernel_size=(5,), stride=(1,), padding=(2,))
    (bn1): BatchNorm1d(32, eps=1e-05, momentum=0.1, affine=True, track_running_stats=True)
    (relu1): ReLU()
    (conv2): Conv1d(32, 32, kernel_size=(5,), stride=(1,), padding=(2,))
    (bn2): BatchNorm1d(32, eps=1e-05, momentum=0.1, affine=True, track_running_stats=True)
    (relu2): ReLU()
    (shortcut): Conv1d(32, 32, kernel_size=(5,), stride=(1,), padding=(2,))
  )
  (pool1): MaxPool1d(kernel_size=5, stride=2, padding=0, dilation=1, ceil_mode=False)
  (resblock2): ResidualBlock1D(
    (conv1): Conv1d(32, 32, kernel_size=(5,), stride=(1,), padding=(2,))
    (bn1): BatchNorm1d(32, eps=1e-05, momentum=0.1, affine=True, track_running_stats=True)
    (relu1): ReLU()
    (conv2): Conv1d(32, 32, kernel_size=(5,), stride=(1,), padding=(2,))
    (bn2): BatchNorm1d(32, eps=1e-05, momentum=0.1, affine=True, track_running_stats=True)
    (relu2): ReLU()
    (shortcut): Conv1d(32, 32, kernel_size=(5,), stride=(1,), padding=(2,))
  )
  (pool2): MaxPool1d(kernel_size=5, stride=2, padding=0, dilation=1, ceil_mode=False)
  (resblock3): ResidualBlock1D(
    (conv1): Conv1d(32, 64, kernel_size=(5,), stride=(1,), padding=(2,))
    (bn1): BatchNorm1d(64, eps=1e-05, momentum=0.1, affine=True, track_running_stats=True)
    (relu1): ReLU()
    (conv2): Conv1d(64, 64, kernel_size=(5,), stride=(1,), padding=(2,))
    (bn2): BatchNorm1d(64, eps=1e-05, momentum=0.1, affine=True, track_running_stats=True)
    (relu2): ReLU()
    (shortcut): Conv1d(32, 64, kernel_size=(5,), stride=(1,), padding=(2,))
  )
  (pool3): MaxPool1d(kernel_size=5, stride=2, padding=0, dilation=1, ceil_mode=False)
  (resblock4): ResidualBlock1D(
    (conv1): Conv1d(64, 64, kernel_size=(5,), stride=(1,), padding=(2,))
    (bn1): BatchNorm1d(64, eps=1e-05, momentum=0.1, affine=True, track_running_stats=True)
    (relu1): ReLU()
    (conv2): Conv1d(64, 64, kernel_size=(5,), stride=(1,), padding=(2,))
    (bn2): BatchNorm1d(64, eps=1e-05, momentum=0.1, affine=True, track_running_stats=True)
    (relu2): ReLU()
    (shortcut): Conv1d(64, 64, kernel_size=(5,), stride=(1,), padding=(2,))
  )
  (pool4): MaxPool1d(kernel_size=5, stride=2, padding=0, dilation=1, ceil_mode=False)
  (resblock5): ResidualBlock1D(
    (conv1): Conv1d(64, 128, kernel_size=(5,), stride=(1,), padding=(2,))
    (bn1): BatchNorm1d(128, eps=1e-05, momentum=0.1, affine=True, track_running_stats=True)
    (relu1): ReLU()
    (conv2): Conv1d(128, 128, kernel_size=(5,), stride=(1,), padding=(2,))
    (bn2): BatchNorm1d(128, eps=1e-05, momentum=0.1, affine=True, track_running_stats=True)
    (relu2): ReLU()
    (shortcut): Conv1d(64, 128, kernel_size=(5,), stride=(1,), padding=(2,))
  )
  (pool5): MaxPool1d(kernel_size=5, stride=2, padding=0, dilation=1, ceil_mode=False)
  (flatten): Flatten(start_dim=1, end_dim=-1)
  (fc1): Linear(in_features=23936, out_features=512, bias=True)
  (relu1): ReLU()
  (fc2): Linear(in_features=512, out_features=512, bias=True)
  (relu2): ReLU()
  (fc3): Linear(in_features=512, out_features=5, bias=True)
  (softmax): Softmax(dim=1)
)
Parameters:
  conv1.weight: shape torch.Size([32, 1, 5])
  conv1.bias: shape torch.Size([32])
  resblock1.conv1.weight: shape torch.Size([32, 32, 5])
  resblock1.conv1.bias: shape torch.Size([32])
  resblock1.bn1.weight: shape torch.Size([32])
  resblock1.bn1.bias: shape torch.Size([32])
  resblock1.conv2.weight: shape torch.Size([32, 32, 5])
…
